nn_inverse_polynomial_model_00000.000009942761607817374169826508_00114.pkl (torch_old, 488235 bytes, 8 tensors)

_pipe.0.weight f4 [200, 3]
00000000: 29b3 bb3e 87e0 ce3e 14b1 56be 0075 ff3e
00000010: 0d4f 3ebe 66e0 d73d 7dea 8fbe 4c9a ad3e
00000020: 244b 023f 109e fabe b135 d93e 8bc4 9f3d
00000030: d8c0 0b3f b20b 453e 8541 c13e 34f2 a6bd
00000040: 5ce0 e33e 70c5 ae3d dbff 89be 94b2 163e
00000050: fe31 88be 40aa 8abd 9e1f 70be 3c18 c43e
00000060: 3125 32bf 9d8d e9be 0f82 c9be 94d6 b8be
00000070: 5cda 2f3d 1189 0dbf b211 e13e be6e 10bf
00000080: 1355 bb3e b8c6 c43d acf7 3fbe 06ab b63e
00000090: b047 b83d 30d6 ee3e d842 813d e7c5 7ebe
000000a0: f098 c73d 0d8b 5abe 3bb6 603e 179e f53e
000000b0: 5bb3 a43e f3f0 a9be 9074 823e 8fe8 c23c
000000c0: 4afd 4e3e 2fdb ddbe 4588 28bf 3e6b 64be
000000d0: 09bc e2be d48d f23e 2993 ad3d 7037 213e
000000e0: edf5 cf3d 22c0 69bd 4311 d23e 54fc e9be
000000f0: f0e5 143d dbc2 c9be bc4c 363e ef77 4bbe
00000100: f306 0d3e b375 30bd c82b f53e 6434 afbe
00000110: 184c b0be d14e b0be 6cf0 043f 3005 453e
00000120: 59d4 023f 3fef 05bf ad98 1dbf f444 e7be
00000130: 61d9 c6be 6476 6f3e c437 0c3e 8fcf d83e
00000140: b5d5 bcbe 4076 dcbe 6fee 883e cbb9 87be
00000150: a068 b33e 324b 0cbe 4419 a93e e88c 02bf
00000160: d440 b4be 33b0 f73d 98f8 f93d babb 16be
00000170: 3a33 b03e 30f4 c83e 195d d6be 2fd0 9dbe
00000180: fac5 fb3e 71af 77be dbbd 71be 236e 1bbf
00000190: 4b57 bfbe ec66 c73d 0812 9cbd 0693 d6be
000001a0: 40e2 5d3c d2eb c9be f4c9 fabe 18c7 a2be
000001b0: 995b 01bf ce38 bcbe 6ebe 133f 0854 df3d
000001c0: a42f 363e 30da 09bf 0025 c2be 5ec9 44be
000001d0: 30e5 b83d c80d 02bf 2abc 7ebe ebf7 b0be
000001e0: e58c 9fbd 2e79 94be ff40 f2bd 424f c8be
000001f0: 94e6 cabe 9c74 acbe 746d 73be c243 02bf
00000200: 13ce e53e 36d3 1fbe be87 e73e e646 0f3e
00000210: e650 fabe 6291 cc3e deaa 22be fa9f 62be
00000220: 225f f5be 48f0 12bf a156 d93d 8d25 42be
00000230: 87e7 303e 1f52 0cbf b091 d23e 65eb 00bf
00000240: 0fea 10be eb54 a03d 3c68 833e f608 143f
00000250: e9ad 2a3f 720c c1be 1d37 a63d a03b a0be
00000260: ab86 f5bd 9441 ddbe 5ea0 063f 4ef5 d8be
00000270: c2ab 823e 7c21 1b3e 1c4c 123e e68c bdbe
00000280: 088f f33e 67ac 8c3d 5944 0abd 4028 19bf
00000290: eb74 043e e97c efbd ca93 9abe 7582 f23e
000002a0: 10cf 033e e48c a3be c99d 95be 40de e1bc
000002b0: b00d a53e c412 17be f1a9 a8be 5a74 4abe
000002c0: 7bd6 dcbe 59bd 2d3e a8cc cd3e 7bfb 12bf
000002d0: e44e 093e ceb4 983e 0068 d63d 06b6 80be
000002e0: 6767 8a3e 9731 843e 7c11 5d3e 7cc6 cfbd
000002f0: 628d 1cbe 8bd3 afbb f3c7 35be 3abb 6fbe
00000300: e595 a93e 249b e73e a988 b4bd e539 42be
00000310: 288c 52bd abc7 c1bd ddbb c53d ddad 003e
00000320: 999b 14bf 3dfe 75be 7e7e ec3e 58d9 4e3e
00000330: 9eb5 bfbd c9fa cdbe 559e d3be 5565 04bf
00000340: 0eb6 40be 28a7 473e 23e3 9b3e 81a2 503e
00000350: adf6 12bf 5dff d8be b076 1fbe 5b3e f63e
00000360: acab 1e3d adad 39be 4a7b 483e ffc5 90be
00000370: 48c2 ecbe d4ca c53e 4f69 86be d808 edbd
00000380: a208 13bf 8216 ad3e d627 ba3e 261f 303e
00000390: d81d cebe 12df 11bf 3315 f0be 594b c43e
000003a0: fa2d 583e 09d8 e23e 90db 9a3e 38a1 153e
000003b0: 8043 b9bb e1ce e0be c443 fdbe 003f 0abf
000003c0: ec8b 433e 3711 a9be eeeb 22be 7a4b c5be
000003d0: 4318 20be 5343 e9be e026 c1be 101c 443e
000003e0: 5ab4 2fbe 26f2 a33e c00f 67be e3c6 e8be
000003f0: ac9f d0bd ff4a 8fbe ecdf 34be 1207 1dbf
0.36660126 0.40405676 -0.20965987 0.4989395 -0.18584843 0.105408475 -0.28108588 0.33906782
0.50895905 -0.48948717 0.42423776 0.078011595 0.5459113 0.19242743 0.377453 -0.08151665
0.4450711 0.08533752 -0.26953015 0.1471656 -0.2660064 -0.06770754 -0.23449561 0.3829974
-0.69588 -0.45615855 -0.3935704 -0.3610121 0.042932853 -0.5528727 0.43958813 -0.5641898
0.36588344 0.09608215 -0.18746823 0.35677356 0.08998048 0.46647787 0.063115776 -0.24880181
0.097459674 -0.21342106 0.21944515 0.47972175 0.32168087 -0.33191642 0.25479555 0.023792533
0.2021381 -0.43331286 -0.6583293 -0.22306535 -0.44284084 0.4737383 0.08475334 0.15743804
0.101543285 -0.057067998 0.41028795 -0.45700324 0.036352098 -0.39406475 0.1780271 -0.1986997
0.13772182 -0.043080997 0.47884965 -0.34219658 -0.34433055 -0.34435132 0.51929355 0.1924026
0.51105267 -0.52318186 -0.6156109 -0.45169795 -0.38837722 0.23385006 0.13693148 0.42345855
-0.36881796 -0.43058968 0.2674441 -0.26508936 0.3504076 -0.1370056 0.3302709 -0.50996256
-0.3520571 0.12094154 0.122056186 -0.1472005 0.34414083 0.392488 -0.41867903 -0.30822894
0.49174482 -0.2418802 -0.2360758 -0.6071493 -0.37371287 0.09736428 -0.07620627 -0.41909045
0.013542712 -0.3943773 -0.48982203 -0.3179252 -0.5053039 -0.3676209 0.5771245 0.109046996
0.17791611 -0.5384855 -0.37918854 -0.1921744 0.09028089 -0.5080228 -0.24876466 -0.34564146
-0.077905454 -0.28998703 -0.11828803 -0.3912297 -0.39629042 -0.33682716 -0.23772222 -0.5088464
0.44883785 -0.15607914 0.4522075 0.1399189 -0.48889846 0.39954668 -0.15885493 -0.22131339
-0.47924143 -0.5739789 0.10612226 -0.18959637 0.1727582 -0.54812807 0.41126776 -0.50359184
-0.14151786 0.07828697 0.25665462 0.57826173 0.66671616 -0.37704808 0.08115981 -0.3129549
-0.119885765 -0.43214095 0.5258845 -0.42374653 0.25521666 0.15149492 0.14286846 -0.3702156
0.47570062 0.06868821 -0.033756588 -0.5982704 0.12935226 -0.116937466 -0.3019088 0.47365156
0.12871957 -0.3194343 -0.29221943 -0.027571797 0.32237005 -0.14753252 -0.32942155 -0.19770947
-0.43132386 0.16966762 0.40195203 -0.5741498 0.13409 0.29825443 0.10469055 -0.25138873
0.27032015 0.25819084 0.21588701 -0.1014528 -0.15288308 -0.005365794 -0.17752056 -0.23411265
0.33122173 0.4523555 -0.08815128 -0.18967398 -0.051403195 -0.09461912 0.09654973 0.12566324
-0.58049923 -0.24022765 0.46190256 0.20200098 -0.093608126 -0.40230396 -0.41331735 -0.5171712
-0.18819448 0.19497359 0.3044673 0.2037449 -0.5740765 -0.42382327 -0.1557262 0.48094448
0.038737938 -0.18132658 0.19578281 -0.2827606 -0.46241975 0.38631308 -0.2625222 -0.115739524
-0.5743505 0.33806235 0.36358517 0.17199382 -0.40257144 -0.56981003 -0.46891174 0.38338736
0.21111289 0.44305447 0.30245638 0.14612281 -0.0056537986 -0.43907836 -0.49465764 -0.5400238
0.19096345 -0.33020946 -0.15910313 -0.38534147 -0.15634255 -0.45559177 -0.37724972 0.1915133
-0.17158642 0.32020682 -0.22564602 -0.4546424 -0.10186705 -0.27986905 -0.17663544 -0.61338913

_pipe.0.bias f4 [200]
00000000: cde8 c5be fa60 663e 35e2 0bbf 9500 9abe
00000010: 9f12 5a3d 6330 fbbe 80f8 bbbe ecfd c0bd
00000020: 0cdd 5a3e c264 f43e 6015 903e 0883 b0be
00000030: d463 c1be 0ef4 d23e 1be5 1d3e 4a71 8bbd
00000040: b376 9bbc 5093 edbe 5bb6 8cbe 9c16 023f
00000050: 84cf 11be d9d4 c3bd da72 f5be d45c a5be
00000060: 6555 6cbd e69d b7be 2cc2 04be 8f7f 403e
00000070: 8493 10bf 9661 d23d 9074 c3be ff44 90be
00000080: 03d5 313e 72a5 d33e f694 21be 2ebb 72be
00000090: c7a5 05bf 1d6e 98be ac6b 01bf 4e4f 07be
000000a0: 9078 1f3d c778 0abf 8e42 ea3e 6b90 a23e
000000b0: 99b0 10bf 9e30 8dbe bb4e ea3d ee96 18be
000000c0: 5027 d8bd 2c47 84bd a325 c53e e33d a5be
000000d0: 509f cf3e 0358 6abc a77a 443d d4d3 ce3e
000000e0: 30d2 c2bd be4c a8be 983c bfbd bc7e d73e
000000f0: 7c55 dbbe f39e a43d 1a42 11bf 31cb 683e
00000100: 9d7b 233e 9a1a 16bd e4d4 443e dbbb 0cbd
00000110: 0b28 8d3e 7301 eabe 97ee 17be bed7 3b3e
00000120: 0bb3 063f d88f 433e 86f4 d6be 0f0d c03e
00000130: 8ad6 03be 9d37 35be 9f56 06bf f820 babd
00000140: 1bfd b73e 4bde a83c e22c acbe 0b6c 063e
00000150: 2e91 3dbe db9b e43e ff48 00bf a1de 84be
00000160: a0b6 0ebf c4d5 68be a6e8 a03d 1ed4 f83e
00000170: e5b8 ff3d 026a fa3e bc53 da3c 9767 8e3e
00000180: 6393 d33e 71f3 d93e ca74 a5be c679 f23e
00000190: d2ea 893e c937 8abe 1b10 8dbe a9ef f7be
000001a0: a6a0 c13d df99 efbe 9037 4b3e 3db5 073e
000001b0: 1169 00bf 2978 da3d 44d3 08be b311 303e
000001c0: 5649 8d3e b1ef 12bf 7ee9 e73e d4c9 d33e
000001d0: f263 353e c015 07bf fa30 53be 4256 2bbe
000001e0: 5cf0 17be d5fd 823e a0ef 0c3e bf91 c83e
000001f0: ac6b 5dbe 986c 153e 4174 223e db1d f6be
00000200: dc5e 0fbf a662 99be 664e a23e 3926 0bbf
00000210: cda6 00bf 8893 773e 99be 873e c868 ca3e
00000220: 9329 dfbe 1d5a d8be 6126 7e3e 952e dd3e
00000230: 034b 893e 9f58 313d 2f63 e53d 7e12 f13e
00000240: 7cb9 bebe 1835 86be f0bc a73e 7643 cabe
00000250: d8ff a2be 0e8a bc3e 6572 1a3e 58b9 0b3e
00000260: 3285 a0be 008b 02bc e1b3 f33e 546d b1be
00000270: 4b99 5fbd 81c3 513e 5512 ccbe acf9 f43e
00000280: c1af 93be 54f8 0dbe c552 52be 7718 eabe
00000290: 5508 11bf 73a2 7a3e 6e08 d83d 606e 0abf
000002a0: 1c42 bebe bcde 023f e666 0c3e 2d24 1d3e
000002b0: 1e39 a5be 6397 81be af4e eebd 9499 1bbe
000002c0: cc8f cabe b1e1 aa3a 41d4 afbc 74a6 0dbe
000002d0: 0c6b 0b3d efbc 88be bd3a a23d fdb5 283e
000002e0: b0b4 9bbe 9a8e 12bf d0b5 823e 4be4 723d
000002f0: 1e57 96be fb38 ee3e 9eaf 85be 0b53 a33e
00000300: 3c91 5a3e 13d6 f7be ea28 a63e 4ee6 07bf
00000310: c2c4 a3be 52c6 71be 1a40 c7be a7b2 fb3e
-0.38654175 0.22497931 -0.5464204 -0.3007857 0.053240415 -0.49060354 -0.36713028 -0.09423432
0.21373385 0.47733122 0.28141308 -0.3447497 -0.37771475 0.41201824 0.15419428 -0.068087175
-0.018977499 -0.46401453 -0.27482876 0.5081575 -0.14239317 -0.09562082 -0.47939187 -0.32297385
-0.057698626 -0.35862654 -0.12964696 0.1879866 -0.5647509 0.10272519 -0.38174868 -0.2817764
0.17366414 0.41337162 -0.1577948 -0.23704216 -0.5220608 -0.2977151 -0.5055492 -0.13213846
0.038933337 -0.5409054 0.45753902 0.31750807 -0.56519467 -0.27576154 0.11440798 -0.14901325
-0.10554373 -0.064588875 0.38505277 -0.32273778 0.40551233 -0.01430321 0.047968533 0.40395987
-0.09512746 -0.3287105 -0.09337729 0.42088878 -0.42838657 0.0803813 -0.5674149 0.22733761
0.15965123 -0.036646463 0.19221836 -0.03435884 0.27569613 -0.4570423 -0.14837109 0.18344018
0.5261695 0.19097841 -0.41983432 0.37509963 -0.12874809 -0.17696996 -0.52475923 -0.090883195
0.35935292 0.02061381 -0.33627993 0.13127153 -0.18512413 0.44650158 -0.50111383 -0.25951102
-0.55747414 -0.22737795 0.07856874 0.48599333 0.12486438 0.48909003 0.026651256 0.27813408
0.41323385 0.42568544 -0.32315665 0.4735853 0.26936966 -0.26995686 -0.2755135 -0.48425034
0.094544694 -0.46797082 0.19845414 0.1325273 -0.5016032 0.1066745 -0.13361841 0.17194252
0.27595013 -0.5739699 0.45295328 0.4136492 0.17713907 -0.5276756 -0.20624152 -0.16732123
-0.14837784 0.25584283 0.13763285 0.39173695 -0.21623105 0.14592206 0.1586466 -0.48069653
-0.5600412 -0.29958075 0.31700438 -0.543552 -0.5025452 0.24177372 0.26512602 0.39533067
-0.43586406 -0.4225625 0.24819328 0.43199602 0.26815042 0.043297406 0.112005584 0.4708442
-0.37250888 -0.26212382 0.32761335 -0.39504594 -0.31835818 0.36824077 0.150827 0.13644922
-0.3135162 -0.0079677105 0.47598174 -0.34653723 -0.05458955 0.20484735 -0.39857736 0.47846735
-0.28845027 -0.13864261 -0.20539387 -0.4572179 -0.5665334 0.24476032 0.10548483 -0.5407467
-0.37159812 0.51121116 0.13711128 0.15345831 -0.3227014 -0.2531081 -0.116361015 -0.15195304
-0.39562833 0.0013037232 -0.021463515 -0.13833028 0.034037635 -0.26706645 0.0792136 0.16475673
-0.3041129 -0.5724884 0.25529337 0.05929975 -0.2936334 0.46527848 -0.26110548 0.31899294
0.21344465 -0.48405513 0.3245309 -0.5308579 -0.31986052 -0.2361081 -0.38916093 0.49159738

_pipe.2.weight f4 [300, 200]
00000000: 5460 68bc b013 e63c b64e 81bd 16bb 263d
00000010: 7206 b4bc 5e50 5cbd 1867 293c ac50 0c3d
00000020: 52a5 7a3d 8ae7 30bd 5587 0ebd b8bd 5e3c
00000030: 9c21 9d3c ccb5 de3c a4f8 1e3d 8c59 83bc
00000040: 00e9 203d de8a 553d d050 97bc 5e0f 4e3d
00000050: fc81 0d3d 4278 7f3d f896 24bd ba05 0fbd
00000060: b67c a7bc 0012 6b3b 12d6 2d3d e956 25bd
00000070: 4001 113d c098 cfbc 00f8 2e3d a003 5cbb
00000080: edbd 7dbd 455e 1fbd f99e 51bd 66a5 0f3d
00000090: 2636 42bd 600d c1bb 50f5 793c 03d5 1ebd
000000a0: 8419 a73c b666 8dbd c03b 4fbd 7f38 83bd
000000b0: b036 afbc 0a06 d3bc 98e4 253c 543a 56bc
000000c0: 7a26 083d 23c4 843d 84d5 cf3c da35 e4bc
000000d0: 679a 87bd 4ccf d13c fc7f 0fbd e662 133d
000000e0: 2a9d 413d e46e df3c c5e1 873d 938b 893d
000000f0: 404e 753c 2709 53bd 5762 813d bd6d 09bd
00000100: e7ce 08bd 625b 723d b668 603d 5406 af3c
00000110: d03d 913b b0a0 73bd e084 f0bb 77e5 8a3d
00000120: a083 933c 9061 c63b 9491 70bc 4a09 cabc
00000130: 6aa0 2c3d 90e3 8e3b 2a6d 3c3d a00e 4dbc
00000140: b815 fd3c 141a ef3c 30be 383c 0cff 353d
00000150: fe7e 353d 9b3b 863d 4aa9 5e3d 861d 94bc
00000160: 1935 75bd 60cc 533c 80ca 21ba 1216 97bc
00000170: 1400 42bc 60f4 593b ca52 533d 7094 b43c
00000180: 4eb1 cdbc fa34 eebc 8271 8fbc eee2 dfbc
00000190: ad38 823d d466 193d cdc3 823d 00ca 6c39
000001a0: f8a3 693c 18de c83c 5613 89bd 90e7 ce3b
000001b0: c0fc 9abb fd61 22bd 06bd 60bd 9133 803d
000001c0: 367d 6b3d 203c 063d ad30 8a3d ac11 ebbc
000001d0: 741a 48bc c051 db3c 406b 3fbc bc57 63bc
000001e0: d565 6fbd 10a0 9b3c 2808 2fbd 4086 283b
000001f0: 0931 8d3d 424e b2bc 1e94 b6bc f2bc 2e3d
00000200: b0f7 d4bc 70fb c6bb 4338 873d 707b edbc
00000210: 7834 4fbd 1417 22bd 0c99 a0bc f56d 09bd
00000220: 774c 16bd 5cfd e93c 80e0 443c 4466 b9bc
00000230: 8004 61bd e662 b6bc a078 f4bc b880 bcbc
00000240: 31a4 82bd 6894 793c 76cc 54bd 7990 61bd
00000250: 5aa3 6cbd 44c6 f13c 965d 2ebd 4217 efbc
00000260: 4606 633d a0c8 193d 6412 263d d480 89bd
00000270: bdb1 4fbd 82ad dabc 7243 6f3d f008 ed3b
00000280: 3a9d 58bd 0025 e839 aaf2 60bd ecd4 7dbc
00000290: 5648 9fbc eeb8 7a3d 306b b33c 5c03 4abc
000002a0: 40b5 433c 8436 a7bc 9c97 e33c 9422 e53c
000002b0: fc8e 9b3c 6ec8 e1bc 4e19 773d 8c41 27bc
000002c0: 2e84 e1bc 6266 353d ce10 6c3d 511d 903d
000002d0: 749c ab3c 8277 c5bc ec19 133d 7e7d 783d
000002e0: 3b0a 8ebd a886 0fbc b084 45bd f8e6 573c
000002f0: ec92 ef3c 4856 6fbc 70d6 c1bb b45d 023d
00000300: 78b6 42bc e439 73bd 82be 673d 84c6 11bd
00000310: 208c febb 008f da3b 503f 8bbb d439 88bd
00000320: f6e1 043d 3b8f 03bd 4938 16bd 0465 8a3c
00000330: bc25 17bd 11db 05bd a82e c3bc a09d d9bc
00000340: e6eb f1bc 0038 9cbc 4089 963c e35f 6abd
00000350: d24e 2fbd 803c 873a 201d 213c 04f6 1f3d
00000360: 1373 4bbd 0ce6 b83c 8e9f 243d 0ed2 203d
00000370: 5ee2 86bd 7c0c ddbc f1f4 78bd 2248 37bd
00000380: ca51 213d 5cfd 2cbc e404 f63c e403 2abd
00000390: 980c 303c 822f 2fbd c0c8 103d 645b fdbc
000003a0: 5641 91bc fa4a 7bbd 00f2 7439 db7f 893d
000003b0: 9e94 0c3d ad87 1abd 804a 793a 900f febb
000003c0: a62c 69bd da18 633d c068 953a 50fb 733c
000003d0: 38ec e9bc 1c86 07bd 4807 3f3c d028 d63c
000003e0: 64ed 813c 1196 0bbd dd99 8c3d 308a 2abc
000003f0: d65f 31bd cc76 07bd 338f 8e3d 0080 6436
-0.014183123 0.02808556 -0.06313841 0.040705763 -0.02197573 -0.05378758 0.010339521 0.034256622
0.061192818 -0.043189563 -0.03479703 0.013595037 0.019181065 0.027186297 0.03881134 -0.01603391
0.039284706 0.052134387 -0.018471152 0.050307624 0.03454779 0.062370546 -0.040183038 -0.03491757
-0.020445209 0.0035868883 0.04244048 -0.040366087 0.035401583 -0.025341392 0.04271698 -0.0033571497
-0.061948705 -0.03890826 -0.051177 0.035069846 -0.04741492 -0.005891487 0.015256241 -0.038777363
0.020397909 -0.06904356 -0.05059409 -0.0640726 -0.021388382 -0.025759716 0.010125302 -0.01307543
0.03323982 0.064827226 0.025370367 -0.02785771 -0.06621247 0.025611542 -0.035034165 0.03598299
0.047269024 0.027274556 0.06634859 0.06716075 0.01497227 -0.0515224 0.06317585 -0.03355192
-0.033400442 0.05916918 0.05478736 0.021365322 0.0044324175 -0.059479415 -0.0073400587 0.06782048
0.0180071 0.006054111 -0.014683146 -0.024662632 0.04214517 0.0043606237 0.046002544 -0.012515694
0.030894145 0.02918724 0.011275813 0.044432685 0.044310562 0.065543376 0.054360665 -0.018080484
-0.05986509 0.012927145 -0.00061718374 -0.018443141 -0.011840839 0.003325723 0.051592626 0.022043437
-0.02510896 -0.029077996 -0.01751018 -0.027329888 0.06358466 0.03745158 0.06385002 0.00022581965
0.014260285 0.024519965 -0.06693141 0.0063142255 -0.004729837 -0.03964423 -0.054867767 0.062598355
0.057492457 0.032772183 0.067475654 -0.02869495 -0.012213338 0.02677238 -0.011683285 -0.013875898
-0.058446724 0.018997222 -0.042732388 0.0025714785 0.06894118 -0.021765832 -0.022287425 0.04266066
-0.025997013 -0.006072454 0.06602528 -0.028989524 -0.050587147 -0.03957279 -0.019604228 -0.03355213
-0.036694016 0.028563194 0.012016416 -0.022631772 -0.054935932 -0.022263955 -0.029842675 -0.023010597
-0.06378973 0.015233137 -0.0519528 -0.05506942 -0.05777297 0.029513486 -0.04256972 -0.029185895
0.055425905 0.037544847 0.040544882 -0.06714025 -0.050706614 -0.026694063 0.05841393 0.0072337314
-0.052884318 0.00044278055 -0.054918922 -0.015492659 -0.019443672 0.06121152 0.021901697 -0.0123299025
0.011945069 -0.020411737 0.027782254 0.02797059 0.018989079 -0.027561393 0.060326867 -0.010208499
-0.027528848 0.044287093 0.057633214 0.07036842 0.020948626 -0.024104837 0.035913393 0.060666554
-0.06935545 -0.008760132 -0.048222244 0.013177626 0.029244862 -0.014607973 -0.0059154555 0.031827644
-0.011884324 -0.05938138 0.056578167 -0.03558971 -0.007768169 0.006669879 -0.004249491 -0.06651655
0.032442056 -0.032119017 -0.03667477 0.016893871 -0.03690122 -0.03267962 -0.023825958 -0.02656442
-0.02953143 -0.019069672 0.018375993 -0.05722035 -0.04279978 0.0010317713 0.009833604 0.03905298
-0.04967029 0.022570632 0.040191226 0.039262824 -0.06586145 -0.026983492 -0.06078047 -0.044746526
0.03938464 -0.010558452 0.030031629 -0.041507617 0.01074519 -0.042769916 0.0353477 -0.030927368
-0.01773135 -0.0613508 0.00023359805 0.067138396 0.03432142 -0.037727047 0.00095096976 -0.00775332
-0.056927346 0.055443622 0.0011399016 0.014891461 -0.02855502 -0.03308688 0.011659451 0.026142508
0.015860267 -0.03407866 0.068652846 -0.010408923 -0.043304287 -0.033072278 0.06960907 3.4049153e-06

_pipe.2.bias f4 [300]
00000000: 7b8b 83bd 1ae7 28bd d8e7 fdbd cc6d 25bd
00000010: d324 0c3c 9b46 a0bd e955 e2bc 3429 973c
00000020: b3c2 28bd cde6 59bd c2c3 09bd ff59 49bd
00000030: 486b ba3c d216 053d 8509 8bbd 2201 02be
00000040: 033d 19bd e4d5 03be c8b3 883c 529f 05bd
00000050: 6f7b f1bd 1252 45bc 56ca e0bd 05da debd
00000060: 741b ff3c 14da 8bbc 80b6 81bd 0452 a6bc
00000070: 50eb 31bd 0d99 a2bd a714 efbd 753b 06bd
00000080: b601 91bd 928c ffbc 8c31 e53a b65f 583c
00000090: a150 5cbd 06f1 98bc e0d5 a6bd f850 a9bc
000000a0: b12d d7bd 5a58 05be f11f 24bd e920 dbbc
000000b0: 8908 48bd 5eef eebc a08d 983b ee0b 90bc
000000c0: 00d1 c239 4067 7fbd 9671 05be 447d 47bd
000000d0: ab8e 76bd 8faf 56bd 8c94 be3c 07eb 81bd
000000e0: b8e6 96bd 130a 6a3d 20c6 2bbc 92b7 5dbd
000000f0: 435f 01bd 0ab1 e1bd 58f7 64ba c448 31bd
00000100: 4896 cbbc 85d9 8bbd 33fa 76bd b61b 9d3c
00000110: 1e4a bfbd c3a7 58bd e26d febd dbb2 37bd
00000120: aa9d c1bc e209 b1bd 9a0b a63d ceb3 85bd
00000130: e9f3 a4bd 3ebd ccbd 3418 be3c 301e 78bd
00000140: e395 eebc 36a0 81bd 59d8 eebc c606 be3d
00000150: 40e7 bb3c 4b23 08be c088 70bd e988 82bd
00000160: 04c1 573d d712 e6bd f83f d3bc 9daf edbc
00000170: c96c 603c 422e c1bc 268e 28bc 5350 84bd
00000180: 8e01 9abc 2f79 b6ba 029e c0bd 7074 23bd
00000190: e9ff 01bd 008b e8bc a7ca 903d e36d c3bd
000001a0: 4bf2 e2bb 6771 7cbd c25e 13bd 5198 b3bd
000001b0: 92a0 61bd c03c 7a3b 59df bcbc b277 8bbc
000001c0: 4206 2cbd 5644 2a3d 8cc0 8cbd 5501 35bd
000001d0: eca4 fabc 572d a3bd 465e abbd 7636 8bbd
000001e0: 45ac 40bc 06bc cabd e805 0ebd 4947 47bd
000001f0: 9ad6 a2bd a818 733c 10d4 51bd de61 4b3d
00000200: 8b59 59bd 9871 603c a52a 9cbd 808b 0abe
00000210: 26f7 033c 2f57 b0bd d98f 9fbc adbd b0bd
00000220: 80b3 34bc 5002 adbb 6aa3 e3bd 3066 dc3b
00000230: 4c17 843c cdb7 30bd 9e6b 393c d705 063d
00000240: e20b 2abc 34eb 43bd 78a3 c4bb 1c18 9e3c
00000250: 7dba e1bd caaf e4bd d2ab 01bd c7fe 873d
00000260: 5834 6c3c de29 7a3d 4637 95bd 4408 74bd
00000270: 49e3 673d e5de c9bc 4a3a 423d 1c82 5abd
00000280: 40e5 f2bb 82d2 85bb ab67 77bd 8f7e c9bd
00000290: 09a8 b4bc ad95 65bd 4e66 94bd 592d 053c
000002a0: 5619 b63c affb 6cb9 aee9 1fbd e230 3bbd
000002b0: 90cc 53bc 870b e3bc 8940 12bd eb5d b4bd
000002c0: 7142 c8bd 484f 68bd 2a47 74bd 2522 c6bd
000002d0: 7fa0 2ebd 5d3b edba 3793 36bd a398 68bd
000002e0: c8f9 ba3c 6530 00be 2553 b8bc b2c7 fabc
000002f0: 4214 33bb 6db1 de3c b498 f1bc 6ea7 3fbd
00000300: 2ed6 f1bc c3ec e6bd 2534 1dbd 5dec 2bbd
00000310: d63e 19bd 555f 6dbd b124 acbd 348c f93c
00000320: 6652 89bd c38e 273c 1576 2dbd b303 8dbd
00000330: 7b85 dabd 13b6 76bd 5103 c6bd 556f 18bd
00000340: a5b6 6ebd e068 43bd 5f83 87bd 6c03 1c3d
00000350: bc52 5dbd defa fcbc ebe2 673c f08e 863d
00000360: a3c4 0f3b 4099 90bb 7c81 4e3b 1f04 133b
00000370: e447 883c 8e45 20bb ceed f0bd e9a9 54bc
00000380: a416 a8bd fb05 74bd 5704 5a3b 703a adbd
00000390: ac38 b4bc 9eb1 a7bc 22ea e6bc d9c6 a7ba
000003a0: c9f2 f63b acf2 8bbd d6e5 e0bc ab6b abbd
000003b0: 8abf 77bc 302e 503c 0ef4 47bd a490 49bc
000003c0: ec7c d13c 119f 4bbd 787e 88bd fa5c c4bc
000003d0: 8762 42bb f86c bb3c 3354 10bd ff70 9cbc
000003e0: 2c9e df3c 9200 6abd e689 f9bc dddb 0ebd
000003f0: c66c 98bd c556 19bd 0a70 acbd cf48 cbbd
-0.06423088 -0.04123602 -0.12397736 -0.040387914 0.008553701 -0.07825967 -0.027628856 0.018452264
-0.041201305 -0.053198624 -0.033633955 -0.049158093 0.022756234 0.032492466 -0.06788925 -0.12695745
-0.0374117 -0.12874562 0.016687289 -0.032622643 -0.11791121 -0.012043493 -0.109760925 -0.10881428
0.03114102 -0.017071761 -0.06333637 -0.02030278 -0.043437302 -0.07939348 -0.11673861 -0.032771546
-0.070804045 -0.031194959 0.001748608 0.013206413 -0.05378783 -0.018669616 -0.08146262 -0.020668492
-0.10506762 -0.13021985 -0.040069524 -0.026749091 -0.048836265 -0.029166874 0.004655555 -0.017583814
0.0003715828 -0.062354326 -0.13031611 -0.048703447 -0.060194653 -0.05241352 0.023264192 -0.06343656
-0.07368225 0.057138514 -0.010484248 -0.054130144 -0.03158499 -0.11020096 -0.0008734367 -0.043282285
-0.024851933 -0.06828598 -0.060297202 0.019178253 -0.093403086 -0.052894365 -0.12423302 -0.044848304
-0.02363475 -0.08644463 0.081076816 -0.06528436 -0.08054335 -0.099970326 0.0232049 -0.060575664
-0.029124206 -0.06329386 -0.029155897 0.09278636 0.022937417 -0.13294713 -0.058724165 -0.0637377
0.05267431 -0.11234062 -0.025787339 -0.029014403 0.013697811 -0.023581628 -0.010287797 -0.06460633
-0.01879957 -0.0013921614 -0.094051376 -0.039905965 -0.031738196 -0.028386593 0.07069903 -0.095424436
-0.006925856 -0.061631586 -0.03597904 -0.087692864 -0.055084772 0.0038183182 -0.02305572 -0.017024849
-0.041998155 0.041569076 -0.06872663 -0.044190723 -0.030596219 -0.07967632 -0.083675906 -0.06797497
-0.011759822 -0.09899144 -0.0346736 -0.048651967 -0.07951088 0.0148374215 -0.05122763 0.04965388
-0.05306391 0.013698958 -0.07625321 -0.13529778 0.00805453 -0.08610379 -0.019477772 -0.08629928
-0.011029124 -0.0052798167 -0.11115153 0.006726049 0.01612439 -0.043144036 0.011317162 0.032720413
-0.01037881 -0.04783173 -0.0060009323 0.019298606 -0.11021898 -0.111663416 -0.031658 0.06640392
0.014416777 0.061075084 -0.07285933 -0.059578195 0.05661324 -0.024642417 0.04741887 -0.05334674
-0.0074125826 -0.0040839324 -0.0604016 -0.09838592 -0.022052782 -0.056050945 -0.072460756 0.0081284875
0.022228878 -0.00022600473 -0.039041214 -0.045700915 -0.0129271895 -0.027715458 -0.035706077 -0.08806976
-0.09778298 -0.056716233 -0.05963818 -0.09674481 -0.04263353 -0.0018099357 -0.04457399 -0.05678619
0.022824183 -0.12518461 -0.022500584 -0.0306128 -0.0027325307 0.027184213 -0.02949176 -0.046790533
-0.029521074 -0.112756275 -0.038379807 -0.04197346 -0.03741344 -0.057952244 -0.08405436 0.030462362
-0.067051694 0.010226908 -0.04234894 -0.06885471 -0.10669991 -0.060232233 -0.09668601 -0.03721555
-0.058279652 -0.04770744 -0.06616854 0.0380892 -0.05403398 -0.030881342 0.014153223 0.06570232
0.0021937273 -0.0044128 0.0031510284 0.0022432876 0.016635843 -0.002445552 -0.11764108 -0.012979963
-0.08207443 -0.059576016 0.0033266747 -0.08458412 -0.02199968 -0.020470437 -0.028187815 -0.001280035
0.0075362665 -0.06833395 -0.027453344 -0.083701454 -0.01512135 0.012706324 -0.048816733 -0.012302551
0.025572263 -0.049712244 -0.06664747 -0.023970116 -0.0029660778 0.022879109 -0.03523655 -0.01909685
0.027297102 -0.05712945 -0.030461263 -0.034877647 -0.07442622 -0.037436265 -0.08419807 -0.099259965

_pipe.4.weight f4 [200, 300]
00000000: 9039 63bc cadf 83bc 85ab d6bd 9add 95bd
00000010: 3f01 d1bd fb24 d7bd 4507 43bc 30e9 413c
00000020: 2c83 c6bc 91cb 99bd e588 cebd 2a06 67bc
00000030: 9641 083d 809e 72bc 6427 36bc dd27 c8bd
00000040: 5355 84bd 033d 3bbd dc45 e6bc 20c0 0ebc
00000050: 0970 aebd cd6b 9fbd a1c3 66bd aac3 acbd
00000060: c402 18bc 6d75 93bd 0c13 3ebd 7807 bebb
00000070: c15c 0d3d 7a67 16bd 0781 38bc ca74 4e3d
00000080: 5c74 3abd fc6b 11bd 757f d5bd fc3d afbc
00000090: 0ea2 8bbd 823e 96bc d0fa a3bd dace c8bc
000000a0: 0917 c8bc b93f d5bd 31fb aebd cd94 0ebd
000000b0: 2761 b7bb 31d0 37bd d3c2 39bd a442 31bc
000000c0: a80d e23c 4a51 c4bc 5a26 89bd efa3 87bd
000000d0: 0912 d2bc 0011 01ba 5262 44bd 25c5 55bd
000000e0: 83b0 68bd e633 b7bd fe61 90bc 2021 043d
000000f0: ac34 6abd 2de3 cf3d 95ad 03bd a893 c0bb
00000100: 8051 b6bd be9c 37bd b891 e9bc 24fb bfbd
00000110: 6e86 59bc 0845 dfbb e24a bfbd 8007 e73b
00000120: 09a2 c0bd 5a37 c8bd 1d8d a3bd dec1 5ebd
00000130: 0519 09bd 30e5 01bd 14d9 2fbd 867f 263d
00000140: 3f48 afbb 70a1 f6bb 9184 a53d 3196 d0bd
00000150: 2394 5fbd 43f4 89bc ad1e 65bd 1aaa aebd
00000160: e0b6 bc3b 474f e9bd 689f cabc 3b4b b3bd
00000170: 2017 5bba 38f3 2a3c debe 1abd 702b 17bd
00000180: 4e26 61bd f0e3 c7bc fed8 a3bc ef7b 81bd
00000190: 3016 a93b 5446 46bd e6aa 423d 6f5f 30bb
000001a0: 3b1f 9cbd 1c41 d3bc 8871 273d 068d 68bb
000001b0: 5020 1a3c de39 4b3d 7212 e5bd 89ef 9e3b
000001c0: 3044 753c 90e1 593c e732 01bd 4a83 5abd
000001d0: 8818 bebc 8134 d4bd 111a 3cbd 8bf5 4fbd
000001e0: 7eec c6bd 1f7b 093c 312a 31bd 50ac 9cbd
000001f0: 21ac 84bd 1e5d fdbc 3500 76bc 28b9 e33c
00000200: 0dc0 c3bd 1293 64bd 87dc f0bd 87a2 8dbd
00000210: 94fa febb a0b1 abbd c87a d6bc d2e7 d9bd
00000220: b8aa 01bd d0ba d83c f7ed d8bd 1699 09bd
00000230: 8009 583c b856 63bc 6ebe 05bd bb4b ebbc
00000240: f846 b3bd 005d 03bc 0751 19bd aacd 563d
00000250: c5e4 2abd b57f b4bd 5e60 dfbd 90c6 fa3b
00000260: 1c98 31bd 0815 ee3c d2e1 91bc cab2 a2bd
00000270: 13ec 293d fe72 cfbd b426 e43c e4cd 44bd
00000280: 8452 b8bd fb01 c9bc c396 d6bc 3254 c5bd
00000290: 1a79 bb3a 99ef bebd 4685 93bd 3227 7ebd
000002a0: b769 97bb f02a 77bb 410d e7bd 1aa8 3a3d
000002b0: faa6 66bd fb5b d8bd f09d 883c a927 96bc
000002c0: fd85 4dbc 55ad 51bc 21f0 8ebd 2141 a2bd
000002d0: fd7e 53bd 6cd2 c6bd 93f3 6abd 91e2 28bc
000002e0: b6a1 e2bc 0d58 4fbd f156 e3bc 6106 d7bd
000002f0: b802 6abd 8195 d5bb 0e4a 343d 1e40 543d
00000300: 9bda e7bd 66f5 c8bd 7cce f1bc 77de 02bd
00000310: 8b07 63bd cb3f 9ebd 584a d9bd 5089 b13c
00000320: 5010 633c fc65 d4bd 9a94 1fbd 74dd 43bc
00000330: 365e bbbc 35cd 65bd 6df8 c9bd 1209 203d
00000340: e916 a1bc 9f49 9bbd e2b5 c4bd 4219 5fbd
00000350: 645d 9fbd 59f1 8dbb 5302 8cbb ba35 c1bc
00000360: 69cf 16bd a80b 03bd 52cd ebbc 84c1 debd
00000370: 3c75 ec3c f4a3 0bbd e493 47bb 96af b2bd
00000380: b661 823d 26e0 28bd 6ab5 a4bd 9a95 c5bc
00000390: 52d8 e0bc aed4 c6bc 52b2 5ebd f920 37bc
000003a0: c5aa 2fbd 273e 4bbd 4ae2 2bbd d4cd 80bd
000003b0: 80bf 5dbd b8b3 563d 6f36 24bd bd8b cebd
000003c0: c0f8 113c 385d c1bd bdbc 9bbd 0dce c1bd
000003d0: 310d bfbd 7b00 4dbd 74b9 95bc d4a4 acbc
000003e0: bc33 49bd 2ac7 22bd c5c9 aabd 18aa b2bc
000003f0: 6805 c1bd 8d9b d7bd 10b7 6cbd 287a 33bd
-0.013868704 -0.016097922 -0.104819335 -0.07317658 -0.10205316 -0.105051 -0.011903589 0.011835381
-0.02423247 -0.0750953 -0.10084704 -0.014100591 0.033265673 -0.014808297 -0.01111779 -0.09773228
-0.06461587 -0.045712482 -0.028109483 -0.008712798 -0.08517463 -0.07784233 -0.05633891 -0.084357575
-0.009278003 -0.072001316 -0.046404883 -0.00579923 0.034512285 -0.036719777 -0.011261231 0.050404347
-0.045521125 -0.035503373 -0.10424701 -0.021391861 -0.06818019 -0.018340353 -0.08006823 -0.024512697
-0.024425047 -0.10412545 -0.08544005 -0.034809876 -0.0055962983 -0.04487628 -0.045351814 -0.010819111
0.027594402 -0.023964543 -0.06696768 -0.06623065 -0.025643365 -0.00049234927 -0.047945328 -0.052189965
-0.05680896 -0.08945446 -0.017624851 0.032258153 -0.057179138 0.10150752 -0.032147963 -0.005876977
-0.08902264 -0.044827215 -0.028511867 -0.09374073 -0.013276679 -0.006813649 -0.09340455 0.0070504546
-0.09405906 -0.097761825 -0.079858996 -0.054384105 -0.033471126 -0.03171271 -0.04293163 0.04064896
-0.0053491886 -0.007526569 0.08081926 -0.10184897 -0.054584634 -0.016840106 -0.055937458 -0.08528538
0.005759105 -0.11392074 -0.024734214 -0.087545834 -0.0008357633 0.010433964 -0.03777968 -0.03690666
-0.05496817 -0.024400681 -0.02000093 -0.063224666 0.0051601157 -0.048406914 0.047526263 -0.0026912352
-0.07623144 -0.025787883 0.040879756 -0.0035484447 0.009407118 0.049615733 -0.11185159 0.004850332
0.01496987 0.013298407 -0.031542685 -0.053347863 -0.023205057 -0.10361577 -0.045923296 -0.050771277
-0.09713076 0.008391171 -0.043253127 -0.076500535 -0.064781435 -0.03092819 -0.015014698 0.02779825
-0.09558115 -0.05580432 -0.11760812 -0.06915765 -0.007781336 -0.08383489 -0.026181594 -0.10639919
-0.03165695 0.026456267 -0.10592263 -0.03359326 0.013185859 -0.013875656 -0.03265231 -0.028722635
-0.087537706 -0.008017778 -0.03743079 0.05244223 -0.041722078 -0.08813421 -0.109070525 0.007653065
-0.043357953 0.029062763 -0.017807875 -0.079442576 0.041484904 -0.10129355 0.027850486 -0.048047915
-0.090001136 -0.024537077 -0.026194936 -0.096351996 0.0014303059 -0.093230434 -0.07203154 -0.0620491
-0.0046207565 -0.0037714802 -0.11281825 0.04557047 -0.056311585 -0.10564419 0.016676873 -0.018329458
-0.012544152 -0.012797673 -0.06979395 -0.079225786 -0.051634777 -0.097081035 -0.057361197 -0.010307924
-0.027665 -0.05062108 -0.027751418 -0.104992636 -0.0571315 -0.0065180664 0.044015937 0.05181896
-0.113209926 -0.09812431 -0.029517405 -0.03195044 -0.055427115 -0.07727011 -0.10609883 0.021671921
0.01385887 -0.103710145 -0.038960077 -0.011954654 -0.022872072 -0.056103904 -0.098618366 0.03907115
-0.019664245 -0.075824015 -0.09605004 -0.054467447 -0.07781485 -0.0043317494 -0.004272738 -0.02358519
-0.036818895 -0.03199354 -0.028784428 -0.10876754 0.028864495 -0.034091905 -0.003045314 -0.087248966
0.06366293 -0.04122939 -0.080424145 -0.024119187 -0.0274469 -0.024271335 -0.05436928 -0.011177295
-0.042887468 -0.04961982 -0.041963853 -0.062892586 -0.054137707 0.052417487 -0.040090974 -0.10085247
0.008909404 -0.09441608 -0.07604358 -0.09463129 -0.09328688 -0.050049286 -0.018276908 -0.02107469
-0.049121603 -0.03974072 -0.08339266 -0.021809623 -0.09424859 -0.10527716 -0.05779177 -0.04381767

_pipe.4.bias f4 [200]
00000000: 2f3c cf3c d9c8 6cbd 9edc d1bd 60d1 56bd
00000010: fead 75bd aa9e 273d 83fa 97bd 2fc9 25bc
00000020: 47c7 92bd c881 cfbd 319e 9cbd 0f48 ebbd
00000030: 642c f03d 1a3e 76bc 10f1 1fbc 3264 0bbd
00000040: ae84 b6bd 46d8 103d 733f 9bbd 02f6 b1bc
00000050: 1d58 96bd dd55 3abd 6ce0 86bc 0497 c7bc
00000060: beab 1abd 1f26 ebbd ba87 39bd 70d2 723d
00000070: 48cb 85bd f97a 98bd fcc9 46bc 08c9 b3bc
00000080: c363 18be e761 1bbc 6e93 35bb 792c c2bc
00000090: 93ff 7d3c dde5 113d b496 abbd 4988 57bd
000000a0: e6d7 25bc 0591 55bd 2eab bbbc 2583 833d
000000b0: f841 ea39 b946 75bd a08f 76bc 004e c0b8
000000c0: 4b1d 4ebd 545b 24bd 12e1 99bc 2818 a0bd
000000d0: c2f5 92bc 0e2a 8abd 458f 4a3d b026 8e3d
000000e0: 7ed3 99bd 242e b2bd 4043 0cbd 669c d3bd
000000f0: 7fe3 7bbc 5559 03bc cc18 44bd 261f 3bbd
00000100: e56c 8cbd 7223 9ebd 0bed d1bd aaea 77bd
00000110: c5b4 b2bc f25c 0d3d ac8c f7bd b44a bbbd
00000120: 563f c4bd e14b 9bbd f1e3 ccbd bac8 29bd
00000130: 8b95 3c3d fcd8 8dbd 2fc9 0cbd 5d37 8ebc
00000140: 9f01 3cbd 2688 8bbd a0ea fc3c e05f 99ba
00000150: 404b 70bd bb10 bb3d 890b 693d 50f3 88bd
00000160: 19df 1fbd ff74 2dbc 26e5 a5bd 2ace 98bd
00000170: e0b8 8a3c 8010 abbd d670 33bd 2cbb ecbd
00000180: ac0a 85bd f609 45bd 72e7 d6bc 0d36 f0bc
00000190: 49bb 33bd 2de4 4ebd a4c1 cf3c 5bde cebd
000001a0: fc14 adbc 2d40 5abc e2a1 11bd 9ead f6bc
000001b0: 5994 9abd 6a2a bbbd 5722 9dbd 11cc 94bc
000001c0: 5006 e13c f904 07bd 528f 1fbd de72 efbd
000001d0: 9fd4 3d3d 5890 87bd b4b2 d3bd 1b8c 57bd
000001e0: 33b5 6fbd 1ac6 b4bd 37d3 07bd dfa6 fabc
000001f0: fb11 c7bd 8191 e03d 7b55 93bd e1f1 29bd
00000200: a7c4 853a c578 abbd f756 a2bd 6c50 9fbd
00000210: 5427 ecbd 480f a8bd d20e a6bd 57a5 efbc
00000220: 89d7 0fbd 70ca 01bd 6156 93bc 4770 033d
00000230: 660e 00be cdc5 44bd ce64 a6bd 965a ea3b
00000240: 6ccc 82bd a6a8 aebc 77e3 abbb c14c 1a3d
00000250: 139e cfbd 5c54 b1bd 094b 3bbc 170f ecbd
00000260: d7ad b7bd cae8 e5bd ae57 44bd 1507 12bd
00000270: 9fa5 1bbd 3210 e0bd b26a d7bd a513 56bc
00000280: 3b06 56bb 4dae 59bc 5072 ae3d 8478 85bd
00000290: 0b6e 02bc aaf3 713e 36fa 4bbd ad27 013c
000002a0: 6fce 7cbd 50e1 c8bd 8870 55be 7b07 f33b
000002b0: f897 babc afd6 d1bd db36 35bd ea04 a43c
000002c0: 5988 1abd 6301 fdbd abfc 6cbd 9f12 81bd
000002d0: 7bb6 cebd 99eb d2bd 1f34 31bd 2e84 d8bd
000002e0: 03d3 44bc f331 32bd 723c a9bd 9d7f e2bc
000002f0: 3ebf 61bd d073 51bd 0ee2 04bd 0a35 b3bd
00000300: ed0d 91bd 907f 3bbd eedc 9ebd 92e8 d6bc
00000310: 577f 0f3c b052 a7bd b54a 44bd 87d6 aebc
0.025297252 -0.05780873 -0.102471575 -0.05244577 -0.059980385 0.0409228 -0.07420828 -0.010118767
-0.071669154 -0.10132176 -0.0764736 -0.114883535 0.11727217 -0.015029455 -0.009762064 -0.0340311
-0.089120254 0.035362504 -0.07580461 -0.021723751 -0.07341025 -0.04549204 -0.016464435 -0.024364002
-0.037761442 -0.114818804 -0.045295455 0.05928272 -0.065329134 -0.0744533 -0.012133118 -0.021946445
-0.14881806 -0.009483791 -0.0027706283 -0.023702847 0.015502828 0.035619605 -0.08378354 -0.052620206
-0.010122275 -0.052140255 -0.022908773 0.06421498 0.0004468111 -0.0598819 -0.015048891 -9.169802e-05
-0.050320905 -0.04012616 -0.01878408 -0.078171074 -0.017939452 -0.067463025 0.04945304 0.06940973
-0.07511042 -0.08700207 -0.034243822 -0.10332565 -0.0153740635 -0.008016904 -0.04787521 -0.045684002
-0.068567075 -0.077216044 -0.102502905 -0.060526527 -0.021814713 0.034512468 -0.12087378 -0.09145108
-0.09582393 -0.07582832 -0.10004414 -0.041451193 0.046041053 -0.06926152 -0.03437155 -0.017360384
-0.045899983 -0.06813078 0.030873597 -0.0011701547 -0.058665514 0.091340505 0.056895766 -0.06687033
-0.039031122 -0.010586976 -0.08100347 -0.07461198 0.016933858 -0.083527565 -0.04380878 -0.11559138
-0.06496176 -0.048105203 -0.026233409 -0.029322648 -0.04387978 -0.050510574 0.02536089 -0.10101005
-0.02112817 -0.013320965 -0.035554774 -0.030112084 -0.07547826 -0.09138949 -0.076725654 -0.018163713
0.02746883 -0.032963727 -0.03895504 -0.11691831 0.04634535 -0.06619328 -0.10336819 -0.05262385
-0.058522414 -0.088268474 -0.033160415 -0.030597148 -0.097202264 0.10965253 -0.071940385 -0.04149044
0.0010205702 -0.08372644 -0.079267435 -0.07779011 -0.11530939 -0.0820604 -0.081082955 -0.029253645
-0.03511766 -0.0316872 -0.017985525 0.032089498 -0.12505493 -0.0480402 -0.08124696 0.007151912
-0.06386647 -0.021320652 -0.005245622 0.037670854 -0.10137572 -0.086586684 -0.011431464 -0.11526316
-0.08968704 -0.112260416 -0.04793518 -0.035651285 -0.037999745 -0.10940589 -0.105183974 -0.013066207
-0.0032657522 -0.013286185 0.08517897 -0.06517127 -0.007960807 0.23628107 -0.049799167 0.007882995
-0.061720308 -0.098086 -0.20843709 0.007416663 -0.022777542 -0.10246026 -0.044241767 0.020021874
-0.037727688 -0.1235378 -0.05785815 -0.0630238 -0.10093399 -0.10298843 -0.043262597 -0.10572086
-0.0120132 -0.043504667 -0.08263482 -0.027648741 -0.055114023 -0.051135838 -0.032442145 -0.08750351
-0.07082734 -0.04577595 -0.07756983 -0.026233945 0.0087583875 -0.08170068 -0.04792281 -0.021342529

_pipe.6.weight f4 [2, 200]
00000000: 9d38 ed3c 80e9 e5bb 2a56 893c 1cfb 103d
00000010: 7033 5ebd 353c 923d 09b2 85bd cdff 72bd
00000020: cb21 083d e8b3 0f3c 8000 22bb 502f fe3b
00000030: 66d5 2c3d f00e b63c 19c7 b13d d8c0 37bc
00000040: d0ae a7bc 53b3 233d c602 2d3d e2b3 213e
00000050: 268a 753d 38ee 073d b074 b8bb 38ce 40bd
00000060: 33aa 493d 6904 27bd 0d41 ecbd 82e0 9b3d
00000070: 8021 e33a e6c1 81bd 94c2 e03c c007 0dbc
00000080: 8dee a83d ce01 383b a204 123c da0e 5a3d
00000090: 90df 9a3c 1554 f43c be71 193d 1cd3 f23c
000000a0: 7db1 17be 00d0 07b8 b227 cd3c e2e9 a8bc
000000b0: 842d b03c 7db0 55bd 355a 07be 6612 2f3d
000000c0: 1098 4fbd 6f5a 1c3c f256 38bb ef63 2abd
000000d0: 6868 473d 9f14 dbbd d4a5 60be 7bc9 003d
000000e0: e098 333b 8cdc cf3c 5e94 693d 73a2 873d
000000f0: 1e91 46bd 2f5d bbbc e054 8dbb 0466 b63c
00000100: 19a9 2bbd 80cf 203b 531c 08bd f289 27bd
00000110: cae3 e4bd 6e3b 383d d717 80bd 5201 6f3d
00000120: 7c48 d03c 16b0 acbc 784a 4dbc 0b57 11bd
00000130: d4b9 9e3c a0b8 8fbd 4ca9 20bc c582 813d
00000140: e024 ae3b 3a4a dcbc cd8e c83c 189d e0bd
00000150: 60a8 00bd a681 963d 9216 053d 7afe 103d
00000160: f36b 0abd 3fda 453d d63b 8a3b a03b 353c
00000170: ea10 ff3c 5e56 4e3d a1b4 8c3d 908e da3b
00000180: 9e9f 30bd 0055 0c3a 2c79 5b3d a75f 87bd
00000190: f8a9 c23c 1dea f63b f1b0 803c 12cd 603c
000001a0: 3443 82bd d574 37bc 140b 903c 56bf 743d
000001b0: 515f 8e3d 4c04 ec3a 8888 f53c f206 213d
000001c0: 6ecb 423c a4ba 0f3e 02b5 7f3d 2025 6e3d
000001d0: c1e2 503d 61f8 4a3d d87b 53bd 03ba 83bd
000001e0: 3610 133d b952 6bbd c212 ecbc 2c1e 7cbd
000001f0: ad7d 893d a2d4 b93d 4f2c c73b 0c1a 2c3d
00000200: 0cb0 f63c 9ec6 35bd acf9 debc b077 59bd
00000210: 484d ef3c 006f f3bb 042d b13c e5f1 2d3e
00000220: e40d 7fbd 60ea 67bd f898 943d 7a70 22bb
00000230: 37c1 603d a5db 2dbd a61e 173b 996b c23c
00000240: 960c a4bc a276 4f3d aa75 30be c803 223d
00000250: f29b 1d3d 402e ab3c d3a2 633d aa52 5e3d
00000260: 2e55 79bd 905e d13c 40a0 c63b bab4 5cbd
00000270: c97a 3c3d 6a38 1cbd 04f9 d13c 6a12 4abd
00000280: eca4 183d dfe9 d43c 6185 39be d091 87bd
00000290: ad76 32be c471 47be a6cb c4bc e2d0 483d
000002a0: b093 473d ce39 043d 37c4 093d 2083 743c
000002b0: 9dba f93c ca09 edbc 02b0 4dbd 4a79 9a3c
000002c0: 6f89 8d3d 9db9 acbb b414 55bd df15 093d
000002d0: 50d6 2bbc 7aca 25bd bc89 6fbd 0e71 013d
000002e0: dfd1 8c3d 37d7 cb3c 4428 ae3d f056 85bb
000002f0: bd61 8f3d 5852 e63c 7809 af3c 918b 833b
00000300: 6032 0e3b f186 bebd ccb1 f93c 285c 36bb
00000310: a17f 2b3d c4ff 25bd ef21 843d eecb a73d
00000320: fc03 bd3d 42c0 68bc cf32 d53d 8d12 d93c
00000330: 7d18 5a3d 3c8d 9f3d 39b0 703d 3770 cabb
00000340: 2541 a4bd 033f 543b 306d 80bc 8c64 183d
00000350: 0381 1d3e 5897 0e3c 4be6 37be 9ffa 3c3d
00000360: e11d 063c 9846 7f3b 6e68 42b7 a335 0ebe
00000370: dd5a 8ebc 3cc4 90bc 8d0d 803c 200a c53c
00000380: e212 623c 6b61 e33d 9d8d fbbc c9b0 da3d
00000390: 946f b8bb 47d9 153c 81b8 6d3d bffa 823d
000003a0: 089a 413c 505e 88bc ea73 333d cd4e c3bb
000003b0: d5d7 0a3d 7afb d83d 10d3 11bc 1d76 c43c
000003c0: 821e 6a3b 3290 42bd 3d4c 99bc b972 d73d
000003d0: d4ef 9e3d 859e ef3c 82b7 e2bc 90b3 743c
000003e0: f7ff 553d 1a03 90bc 8063 d63b 8eb5 e53c
000003f0: 1d8a 153d c7ae 96bc d2ba 053c 5303 0f3e
0.02895766 -0.0070163608 0.016764719 0.035395727 -0.054248273 0.0714039 -0.06528098 -0.059325982
0.033235352 0.00877092 -0.0024719536 0.007757105 0.0421957 0.02222392 0.08680553 -0.011215411
-0.0204691 0.03996594 0.042238973 0.15791276 0.0599462 0.033186167 -0.0056291446 -0.047071666
0.04923458 -0.04077569 -0.11535845 0.07611181 0.0017328709 -0.06335811 0.027436532 -0.008607805
0.08248625 0.0028077248 0.008912237 0.05323682 0.018905431 0.02982525 0.03746199 0.02964168
-0.148138 -3.2380223e-05 0.025043342 -0.020619337 0.021506079 -0.052170265 -0.13218005 0.042742155
-0.050682127 0.009543045 -0.0028127995 -0.04159921 0.048683554 -0.106972925 -0.21938258 0.031442147
0.0027404353 0.02537372 0.05702626 0.066227816 -0.04847824 -0.022871582 -0.0043130964 0.022265442
-0.04190931 0.0024537742 -0.033230137 -0.04090304 -0.1117626 0.04497855 -0.06254547 0.05835087
0.025425188 -0.021080058 -0.012529962 -0.0354834 0.01937572 -0.07017636 -0.0098059885 0.063237704
0.0053144544 -0.026890863 0.024482155 -0.10967463 -0.031410575 0.07348947 0.032492228 0.035398938
-0.033794355 0.04830384 0.004218559 0.011061579 0.031135995 0.050375335 0.0687039 0.006669827
-0.043120973 0.0005353242 0.053582355 -0.06610041 0.023762688 0.0075352327 0.015709372 0.013720768
-0.06360474 -0.0111972885 0.017583407 0.059752785 0.06951774 0.0018006652 0.02997233 0.039313264
0.011889322 0.14036041 0.062428482 0.058140874 0.0509975 0.04955328 -0.05163178 -0.06431963
0.03590413 -0.057451937 -0.028817538 -0.06155221 0.06713424 0.090737596 0.00607828 0.042017028
0.030113243 -0.04437887 -0.027218662 -0.05309266 0.029211655 -0.0074290037 0.02162791 0.16986807
-0.062269107 -0.05662 0.07255739 -0.002478628 0.054871764 -0.042445797 0.002305904 0.023732947
-0.020025533 0.050650246 -0.17232385 0.039554387 0.0384788 0.020896077 0.055575203 0.054278053
-0.06087225 0.025557786 0.0060615838 -0.05388329 0.046015535 -0.03813974 0.025631435 -0.049333967
0.037266657 0.025990425 -0.18117286 -0.066196084 -0.17428084 -0.19476992 -0.024022888 0.04902733
0.04872483 0.03228169 0.03363439 0.014923841 0.030484492 -0.028935332 -0.050216682 0.018856663
0.06910979 -0.0052711503 -0.052021697 0.033468124 -0.010488108 -0.0404763 -0.058480963 0.031601958
0.06875967 0.024882896 0.08503774 -0.0040692016 0.07001064 0.028115436 0.02136682 0.0040144403
0.0021697506 -0.09303082 0.030480288 -0.0027825925 0.041869763 -0.04052712 0.06451785 0.081931934
0.092292756 -0.014205994 0.104100816 0.026498104 0.05324601 0.0779061 0.05876181 -0.006177928
-0.08020238 0.003238619 -0.015677065 0.037205264 0.15381245 0.008703075 -0.17958944 0.04613745
0.008185835 0.003895199 -1.15876155e-05 -0.13887648 -0.017377311 -0.017671697 0.015631462 0.02405268
0.013798447 0.111025654 -0.030707175 0.1067825 -0.0056285355 0.009146041 0.058037285 0.06395482
0.011816509 -0.016646534 0.043811716 -0.0059603215 0.03389724 0.1059484 -0.008900419 0.023982102
0.003572375 -0.047500797 -0.018713111 0.105199285 0.07760587 0.029250393 -0.027675394 0.014935389
0.05224606 -0.017579604 0.006542623 0.028040674 0.03650867 -0.018393887 0.008162217 0.13966112

_pipe.6.bias f4 [2]
00000000: eb2c dabb 6436 a63d
-0.0066581867 0.08115843
